regional_model/temp_model.pt (torch, 484904 bytes, 18 tensors)

weight f4 [54, 8]
00000000: 3cc9 bd3e ff69 94bd bd5c 063f 1980 ac3e
00000010: ed3b 3b3d 5442 503d f83c c73e 9c98 91be
00000020: d483 293e fe70 ddbe b856 80be 3433 4e3d
00000030: 62ba aa3e 99dd 8dbd 935b 9a3e 6146 37bf
00000040: 8d24 e03d 5b07 a7be 0393 febe 0e1a 463d
00000050: 5dcf 603e 8de2 2abf 1a67 d13d 6585 253e
00000060: a66f 323d d1f9 223d c7e1 963e 589a 543e
00000070: 96a1 28be 9d3a fcbc 9145 acbe 5de7 db3d
00000080: 2975 3f3d 8b25 cc3e d724 6b3e 9bfd c93e
00000090: 0157 dcbe 0e06 a23e 15bc de3e 0bff c9be
000000a0: e871 93bd 2f81 9f3d 61da 89be b4d9 073e
000000b0: 0678 30bd 3ead bcbd 66d3 24be 83b1 ae3c
000000c0: 95f0 aebe 4e4b 85bb 3d30 4ebe 4a9d b0be
000000d0: 63b5 8d3e a2fd 0bbf ead0 053e 83b0 563e
000000e0: af9a 9ebe 0e6d 4abe 71f4 903e 17bf 243e
000000f0: 1f46 ccbe a074 af3e 284b 123f f4b3 2b3e
00000100: ab8d debe 915f dc3e 800b e6bd 1d88 063e
00000110: 5d0c abbd 67a2 7abe 11e4 39bd 5732 93be
00000120: 5a5d 4b3e 3c8b 17bf 69a4 02bf 4e77 4a3e
00000130: 75a3 943d 4849 9f3e 9ca8 81be e039 68bd
00000140: 9b74 0cbf 3999 edbe e84d 8dbe 2ce3 8d3e
00000150: a8b6 73bd dcd9 a33e 15f9 0bbe 3787 e73e
00000160: b27a 7ebe 8eae 3ebc 539b 76be 977e 0a3f
00000170: 6ec9 babc 3db1 c5be 48ff eabe 94e0 d3bd
00000180: 35c1 01bf 70b4 abbe 8b5f 9cbe 1ade 17be
00000190: bf15 f1be f139 623c e22d a83e 9678 3abe
000001a0: 859d fe3d c657 02be c3ac 943e 8f7b 8a3e
000001b0: 50f2 debe 5d68 bfbb 4cc3 6d3e 161b 0ebf
000001c0: 442c 3ebd 97d3 82bd 2a11 983e 4220 5e3e
000001d0: 8ea3 43be b46a ae3e 2c08 273e 97ed 1dbf
000001e0: b9f8 dc3d fc1d 0f3e 75c1 28bf e00b fa3e
000001f0: 828c 88be d028 82be 9e84 383e 1863 323c
00000200: a789 4abc b159 d03e b9b6 a6be c842 8cbe
00000210: 16a1 a83e a56f 1abf 4915 cdbe e204 12be
00000220: 89d0 8cbe 812a 31bd 3c7d 003f 649e e6be
00000230: 59b9 73bd 42b7 3ebe f9a8 97bb e8b7 293b
00000240: 88a3 073f f2ab 61bc ebc2 a8be 1eca 88be
00000250: 4479 5abe b23a 533d 1ffb 0a3d 1604 003f
00000260: b9d3 bd3e 45b4 263c 7a25 94be 4d5c 85be
00000270: db8b adbe 2c19 a63e a2e2 0c3f 29f4 dcbe
00000280: b115 e3be 69fe 46bc 077d 983c e860 283f
00000290: 54c1 9ebe bbcc a53e 2b57 83bd 0829 c9bd
000002a0: 4fe2 a33e 9245 1f3f 4bc5 913e 9f12 4e3d
000002b0: 2667 acbe ab6a 573b 39b2 8dbe 096b 8b3e
000002c0: 45e2 1f3e 72b1 c93e f90f 9abe a144 9f3c
000002d0: 314a 24be 3f63 213d 9d3d 0abd 16af e63e
000002e0: 2ccc 743e 35a0 3bbe 1bb9 acbc b59e 633e
000002f0: 2199 283e a0d7 30be b620 d63c c711 653f
00000300: c9ab b8be 0afc bc3e c390 163e 0cea 5f3d
00000310: 136b 33bf cde7 d5bc 4663 98bd 0fb8 103d
00000320: d373 433e 4dc4 8f3e 84f3 063f a8e6 2bbd
00000330: 1f7e 08bf b4b3 d23e 6b62 ae3e 314a 483c
00000340: d533 10be a5dd 883e c0c9 123e d9ce acbe
00000350: 7e38 5a3e 1cd6 4abf f3a0 97be 4dbf 35bd
00000360: b66b a33e 66ce 773e 4b27 c13e 9397 20bf
00000370: 306e 52bd 7f2e 4a3d 1e12 edbd 0e99 d83e
00000380: 4a04 143f acd6 5d3e 5c56 31be c0d0 8f3e
00000390: 6f79 19bf 5c2b 8fbd d2a0 64be fd87 9a3e
000003a0: 25c6 9abe 2a35 04bf a648 963d a8d3 af3e
000003b0: 6722 963e 71db 59bd c6b0 0a3f f461 cbbd
000003c0: aa43 b0be 445d 063f 520f 283d f071 a33e
000003d0: 4027 e2be 4235 e7bd 5613 5bbe ff04 7bbc
000003e0: 027e c4be 8a48 c7bd 186c 6d3e efc9 f5be
000003f0: 0d39 87be 364f 1f3c 3a1b 3dbe 179a 64be
0.37067592 -0.0724678 0.5248526 0.3369148 0.045711447 0.050844505 0.38913703 -0.28436744
0.16554195 -0.4325027 -0.2506616 0.0503418 0.33345324 -0.06927032 0.3014799 -0.71591765
0.109444715 -0.326228 -0.49721536 0.04836469 0.21954103 -0.6675194 0.10224743 0.16164167
0.043563507 0.039789025 0.2946913 0.20762002 -0.1646789 -0.030789668 -0.33646825 0.107374884
0.046742592 0.39872393 0.22963272 0.39451298 -0.4303513 0.31645244 0.4350287 -0.39452395
-0.0719946 0.07788312 -0.26924422 0.13266641 -0.043083213 -0.09212731 -0.16096267 0.021324879
-0.34167925 -0.004067815 -0.20135589 -0.34495002 0.2767745 -0.5468389 0.13067976 0.20965771
-0.3097739 -0.19768164 0.28311494 0.1608852 -0.39897248 0.34268665 0.5714593 0.16767865
-0.4346746 0.4304166 -0.11232662 0.1313786 -0.083519675 -0.24476014 -0.045383517 -0.28749344
0.1985983 -0.5919683 -0.5103212 0.19772074 0.072577395 0.31110597 -0.2532395 -0.05669582
-0.54865426 -0.46405962 -0.275985 0.2771238 -0.059500366 0.3200215 -0.13669236 0.45220348
-0.24851492 -0.011638297 -0.24082689 0.5409941 -0.022801127 -0.38611785 -0.4589789 -0.10345569
-0.50685436 -0.335361 -0.30541644 -0.14830819 -0.47086903 0.01380776 0.32847506 -0.18210062
0.12432388 -0.12728795 0.29038057 0.27047393 -0.43544245 -0.0058412985 0.23219031 -0.5551008
-0.046428934 -0.06388014 0.29700595 0.21691993 -0.1910536 0.34065783 0.16311711 -0.6169066
0.107896276 0.13976282 -0.6592019 0.48837185 -0.266697 -0.25421762 0.1801934 0.010887884
-0.01236192 0.4069343 -0.3256128 -0.273947 0.329354 -0.60326606 -0.40055302 -0.14259675
-0.2750285 -0.043253426 0.5019109 -0.45042717 -0.059502933 -0.18624595 -0.0046282974 0.002589697
0.52983904 -0.013773905 -0.3296121 -0.26716703 -0.21335322 0.051569648 0.033930894 0.50006235
0.37075594 0.010174816 -0.28934842 -0.26046982 -0.33895764 0.3244108 0.55033314 -0.4315503
-0.44352487 -0.012145617 0.018614305 0.6577287 -0.31006873 0.3238276 -0.0641311 -0.09822279
0.32008597 0.6221553 0.28470835 0.050310727 -0.33672446 0.0032869976 -0.27675036 0.272301
0.15613659 0.39393193 -0.3009031 0.019441905 -0.16043927 0.03940129 -0.033750165 0.45055455
0.2390601 -0.18322833 -0.021084359 0.2222851 0.16464664 -0.17269754 0.026138645 0.8948025
-0.36068562 0.3691104 0.1470366 0.054666564 -0.7008526 -0.026111508 -0.0744081 0.035331782
0.19087152 0.28079453 0.52715325 -0.041968018 -0.53317446 0.41152728 0.34059462 0.01222472
-0.14082272 0.267316 0.14334774 -0.33751562 0.21310613 -0.79232955 -0.29614982 -0.04437189
0.31918114 0.24199829 0.3772529 -0.62731284 -0.051374614 0.04936075 -0.11575721 0.4230427
0.57819045 0.21663922 -0.173181 0.2808895 -0.5995092 -0.06990692 -0.22326973 0.30181876
-0.30229297 -0.5164362 0.07338075 0.34341168 0.29323122 -0.05318779 0.54175985 -0.099307925
-0.34426624 0.5248606 0.041030236 0.31922865 -0.4417057 -0.11289455 -0.21394095 -0.015321015
-0.38377386 -0.097306326 0.23185766 -0.48005626 -0.26410714 0.009723475 -0.18467417 -0.22324406

weight_ih_l0 f4 [256, 10]
00000000: 96fa bb3d 5ea5 423d ab00 c83d bd25 f3bd
00000010: 8ba9 9abd 685f e23d b19f d3bc bf48 01be
00000020: 2469 40bd 419e 7fbe 4904 a83d efe4 73bd
00000030: aef9 473c 96ee 18bd eec6 843a e9fa 143d
00000040: 8f20 663e f765 c1bd b0fd 9e3d 164d 4f3d
00000050: 6841 b1bd af9c adbc e686 413e 33e5 e43d
00000060: fe74 a6bc 036d 303e 57de 2ebd 5c2c 15bd
00000070: 3731 56bd c292 a23d a757 4bbb 6b2e e1bc
00000080: 5190 0cbe 3f46 adbd 3c94 d53d 43a4 4d3b
00000090: abb4 9abc e1b3 1fbe 6f8d f63c 1f16 abbb
000000a0: 0019 76bd ce95 ad3d 2bcb 36be cdae aebe
000000b0: 0713 33bd 8a22 63bd 0c95 debd 43b1 d7bb
000000c0: 6a91 7dbe e77b 9d3d cebf e33d 7d8a 1b3d
000000d0: a227 a63d 9fc9 6fbc 8830 c6bc fc85 01be
000000e0: 5cea 363e 5061 273e 0246 b4bd b649 06bc
000000f0: 493e d73c 4625 a53d e450 023e 5c66 df3d
00000100: 5aab 283c 784c 2b3d 3dd1 1dbd 363b 36be
00000110: dd5f b8bc f9b1 283e b1ca 75be c58e c3bb
00000120: daa8 c5bd 7724 eebd 5bc9 473e b93a 423e
00000130: 2934 43ba 1605 503e dde5 453e 931a 03be
00000140: fe6e f83d 79e2 cbbb 122d 96bd 86b6 553e
00000150: 1e39 7cbc af73 11be e189 473b 2f6e ffbd
00000160: 8588 313c 0857 b63d c1ea 823d fe94 213c
00000170: b4cb 64bd 7a63 143e ceb3 ba3d 7293 69be
00000180: 48a8 813d 882f 5f3e 8f2f 113d 206f ec3c
00000190: 1f66 d73d da8c 2a3d 00b2 20bd aed3 94bc
000001a0: 4918 c33c 773b 553d 052b 4ebd 032b e3bd
000001b0: 532b 04bd 145a aa3d 0c9f adbd 7ea5 813d
000001c0: 99a8 06bc 819e 333d 4948 97bd b282 b9bd
000001d0: 34fa 3b3d b3b7 5e3d 383c b63d 56dc cc3d
000001e0: 077e debd 1df8 2b3e a900 25bd 3abe 13bd
000001f0: d078 fd3d 6e70 2c3d 2b5a 3bbd 18fa dfbc
00000200: b8a5 d13d 26f2 6ebd ba02 cb3d 072d 22bd
00000210: 65e8 1ebe 0c3e dfbd d5f4 443e 7159 82bc
00000220: ae89 9fbc 616e 3fbc 46be 243e 0f82 013d
00000230: 780a edbd 2440 05bd a963 74bd baf7 f33d
00000240: 0a4a a63d 30d3 4fbc 9e1b a5bd 7cb8 c23d
00000250: 1ce2 f93c c886 f93c 49e6 ba3d d7d0 2dbe
00000260: 7957 ab3e 5dce 5fbd b571 143e 945f 20be
00000270: 95db 2dbd cf6d 19be ccc2 c03d c622 933d
00000280: 746a a53d 2cad 0d3c d802 88bd 7970 5bbe
00000290: e498 a3be 164f 2d3e 79a2 de3d 4515 ecbd
000002a0: 1aa7 c1bd ce2f f7bc 48fc a63d ff81 093d
000002b0: 88a1 5bbc 79ef 9ebd 47aa 2b3d e9c2 2e3d
000002c0: 04fc c5bd 16ab 20be c971 7a3c 40a8 c73c
000002d0: 0f0e 8fbc 8b25 d3bc 79b5 293d 10f5 d33d
000002e0: 000d 683e a314 14be 043d 9bbd 90ba d33e
000002f0: f1f4 10be d1f5 023e ec43 193e e181 133e
00000300: e49b dfbd e966 cabe 00c1 9bbd 2cdc f2bc
00000310: fa39 653e a4fb 563d ddde 93bd 184f 203d
00000320: fefd 2fbe a0c9 01bd 1514 c23c 12ce f239
00000330: ee66 623d 7899 c7bd 72cf 9ebd d133 cb3d
00000340: e9be 843b 323a c5bc de5d c1bd 95ba 15be
00000350: b2e9 ab3d ec89 3ebe 80b9 bc3d b3fd 373d
00000360: 37e5 fe3d 4e47 6bbb fd63 cd3d 0de3 56bc
00000370: 66e4 2fbe 36ba 623b dbf2 bb3d a5c0 00bd
00000380: 13d8 bfbd 5c77 c13d b583 8b3d 131a c93d
00000390: 4d2a 1bbd 325a f03c 5558 783d d50a 1d3d
000003a0: 8ffc ec3d 1e40 4cbe e0b3 7e3e 01e5 06be
000003b0: 44ba 5a3d 3b72 8fbd 45ab d23d a85f ab3d
000003c0: 6ec2 d7bc 76a8 62bd bab9 3d3e 3207 073e
000003d0: 9e35 73bd e9af 6dbd 02ff 94bc 3551 5c3d
000003e0: 4e23 69ba 5f29 283c e496 8bbd c90c 703d
000003f0: ff0b 923d 08c3 2e3c d8a6 e83c 5673 97bd
0.09178655 0.047520988 0.097657524 -0.118724324 -0.07551869 0.110533535 -0.025832983 -0.12625407
-0.04697527 -0.24962713 0.08203942 -0.0595445 0.012205524 -0.03733691 0.0010130086 0.0363721
0.22473358 -0.094432764 0.07763231 0.050610624 -0.086550534 -0.021192877 0.18899116 0.11176529
-0.020319458 0.17229085 -0.04269251 -0.036419258 -0.05229303 0.07938148 -0.0031027587 -0.027487954
-0.13726927 -0.08460664 0.10428664 0.0031378425 -0.018884977 -0.15595962 0.030096738 -0.005221143
-0.060082436 0.084758386 -0.1785094 -0.34117737 -0.043719318 -0.05545286 -0.10868272 -0.0065824105
-0.24762502 0.07689648 0.11120568 0.03797387 0.08113028 -0.014635473 -0.024193063 -0.12648767
0.17862839 0.16345716 -0.088024154 -0.008196285 0.026274817 0.0806375 0.1272617 0.109081954
0.01029476 0.041820973 -0.038529623 -0.17796025 -0.022506649 0.16474141 -0.24003102 -0.005967947
-0.096513465 -0.11628049 0.19510405 0.18967713 -0.0007446432 0.2031444 0.19325967 -0.12803106
0.12130545 -0.006222066 -0.07332815 0.20870408 -0.015394477 -0.14204286 0.0030447172 -0.12472188
0.010835771 0.08903319 0.06392432 0.009862183 -0.05585833 0.14491072 0.09116326 -0.22810152
0.06330925 0.21795475 0.035445746 0.028861582 0.10517525 0.041638233 -0.039232254 -0.018167343
0.023815291 0.052058663 -0.050333995 -0.11092188 -0.03226788 0.08317962 -0.084776014 0.06330393
-0.008218908 0.043852333 -0.07386834 -0.09058131 0.04589291 0.054374408 0.088982046 0.10002963
-0.108638816 0.16793866 -0.040283833 -0.036070086 0.12376559 0.04209941 -0.045740288 -0.027340934
0.102366865 -0.0583364 0.099126294 -0.039593723 -0.15518339 -0.109005064 0.19234021 -0.01591179
-0.01947483 -0.011684031 0.16088209 0.031618174 -0.115742624 -0.032531872 -0.059665356 0.119124845
0.081195906 -0.012684628 -0.08061908 0.09507844 0.030503325 0.030459777 0.09125955 -0.16974197
0.33465174 -0.054640163 0.14496501 -0.1566146 -0.042445738 -0.14983295 0.094121546 0.07184367
0.08076945 0.008647244 -0.066411674 -0.21429624 -0.31952584 0.169247 0.10870833 -0.11527494
-0.094557 -0.030174162 0.081535876 0.03357124 -0.013405211 -0.077605195 0.041910436 0.04266635
-0.09667209 -0.15690264 0.015285918 0.02437222 -0.017462758 -0.025774738 0.04143283 0.10349476
0.22661209 -0.14460997 -0.07579997 0.41353273 -0.14155938 0.12789084 0.14967316 0.14405014
-0.10918406 -0.3953164 -0.07605171 -0.029646002 0.22385398 0.052486077 -0.07220242 0.03913793
-0.17186734 -0.031686425 0.023691216 0.0004631137 0.055273943 -0.09746069 -0.07754411 0.099219926
0.0040510786 -0.024075601 -0.09441732 -0.14621957 0.08394183 -0.186073 0.09215069 0.04491968
0.12446063 -0.0035900655 0.10028837 -0.013115657 -0.17176971 0.0034595854 0.091771804 -0.03143372
-0.09367385 0.09446594 0.068122305 0.098194264 -0.037882138 0.029339883 0.060631115 0.03834041
0.11571609 -0.19946334 0.24873304 -0.13173296 0.053400293 -0.070042096 0.10286573 0.08367854
-0.026337828 -0.055336438 0.1852788 0.13186339 -0.059377305 -0.05802909 -0.018188003 0.053788383
-0.00088935054 0.01026377 -0.068158895 0.058605943 0.07131194 0.010666616 0.02839987 -0.073950455

weight_hh_l0 f4 [256, 64]
00000000: fe8d d23c a852 c1bd 1b80 e73d f40f f8bd
00000010: 89bc 23bc 4abf 793d 5427 35bd 55af 933d
00000020: 36ae 19bd 1e9f 003e b30a 9dbd 6a98 aebd
00000030: ff3e 9fbc 18cf 71bd e4f6 b73d 178b 35bd
00000040: ae47 93bd 06f8 dfbd f589 c3bd c14c 703c
00000050: 5fbb 923d 24d8 0ebd 82e8 1bbe f3f7 a5bd
00000060: 449b 22be 0165 a83d f8a1 71bd 2102 523d
00000070: 241c c9bd 1965 813d aa65 1d3d cba8 c0bd
00000080: 5c29 a83d eb51 2e3e eeb8 283e 76ce a83d
00000090: 0e0b abbd 3645 7e3d ca3c 00bd 6ad4 1ebd
000000a0: af99 143e a1fd 2cbd 4f3a 343d 9cd8 853d
000000b0: 3bd3 9bbd b1fe a23d 7e8e 0d3e 6a58 f4bc
000000c0: 803b 52bd 077c 2ebd 5114 8ebd 75b0 9fbd
000000d0: 641b 12bd f403 cb3d 241e 36bd b008 b63d
000000e0: 4396 18be 3e20 1d3c 62bc 1d3c 2e5b d8bd
000000f0: fc28 f5ba 7c3b 85bc 8cd8 833d e4f0 5e3d
00000100: 67a5 cfbd c72a b1bd ce04 c23d 8fbf c9bd
00000110: 2b3f 20bd 8297 423d 66c9 3dbe f7f4 84be
00000120: eadd 2d3e 90d2 89bd 6eac 6b3c 5357 1ebe
00000130: f8df 7abd e867 1b3e 5fd3 053e 398d 5dbd
00000140: f33e cebd 9c8c f3b8 d2ce e2bb 65a5 c73d
00000150: 43c5 17be b640 603d e704 003d 694e 6b3b
00000160: 4e99 6dbd 5cbc ebbd 6644 a1bd fe7f a0bd
00000170: 7d0d b5bd 0021 ee3d 6ce0 73bc 47d4 2dbd
00000180: 95ab e53d a6ee 973d f421 8bbd e184 d53d
00000190: 34fa 61bd 3459 53bd 3c3c 22be 7aef 08be
000001a0: 8978 dd3b 1799 713d 32cc c63d 35d3 893d
000001b0: 54a3 4f3d 764b d9bd 0989 77bd 14d9 b63d
000001c0: dbb5 133d 6865 973d cfa8 adbb d07c fb3c
000001d0: 8587 ef3d cdca 393e 6bdf 813e 3054 d33b
000001e0: 4558 58bd bdb8 8ebd 5171 633c adbd bc3c
000001f0: 7e33 d33c 2530 b9bd f9f8 1abe bde6 82bd
00000200: bbe9 46bc e83a 673d 35d2 113e db5e ee3d
00000210: 28cc 0f3e fde8 b13c 1133 fa3d 0fac a2bd
00000220: 5087 c1bc f080 a53d e847 d3bc 6bca eabd
00000230: 5962 7e3d f0bd b2bd d901 373e bf49 333d
00000240: 37d1 af3d 88bd 1b3d f5bb bcbb 76aa fe3c
00000250: c7ea a53c 4ef3 6a3d e51f 393d 4d0d c43d
00000260: 70eb 9bbc 0718 26be 89a8 b13d 7882 783c
00000270: 2e6b f0bc cb98 42b8 4378 eabd ed29 27be
00000280: 4c53 0d3e 5c4a 233d f3ca afbd 48b4 1f3d
00000290: bc85 a4bd f798 913d 7899 75bd 028f 2ebe
000002a0: b627 febd ff88 703d 32f6 e93d d5ae f43d
000002b0: aedc 373e af0f 03be 25f8 a43d ae89 df3d
000002c0: 124a f03d 0733 153e d990 033e b618 b7bd
000002d0: d7e2 5fbd 5224 8b3e 7aa1 523c c82c 15bc
000002e0: 6957 133d 57e0 edbc 91d0 49bd 0ef9 c43d
000002f0: aeb2 f83d 41c4 36bd 3cca 2dbe bdd4 28be
00000300: c02c 06be 435a bc3d c3b2 28be 077b a3bc
00000310: d409 953d e9e4 d73d 27be 3fbd 7ca8 4e3d
00000320: 6f61 a7bd 4097 98bc fd0e b3bd 9311 b7bd
00000330: 7a45 033c 5709 93bd f7c0 9d3d ca04 85bd
00000340: fcf3 1cbe 2e6b 8abd 7290 d83c 9edd f0bd
00000350: d29e 94bd e7cb 943d ec03 19bd f916 6a3c
00000360: 86ab be3d 2388 d4bd c7d8 93bd dd4e 8c3d
00000370: 9da4 57bd 304e c5bd 68a1 14be a3ef 0cbd
00000380: 8bfa a53d 4c6c ddbc 0de7 eebd 639b 0dbe
00000390: e36d 3a3d caec 7f3d 52f4 e13d ce6a 23be
000003a0: bd2e 8ebd 4cd7 943d fc93 0abe 4f67 a2bd
000003b0: 3b83 a2bd a173 8b3c 8a22 353a cd47 cfbc
000003c0: 4b25 69bc 91ea f13d d4db babd 5c1a f1bd
000003d0: 3813 5cbc 7482 9a3d fad4 cabd a755 b0bd
000003e0: 389b d4bc ce24 bebd 4527 6e3d 7ff4 a7bd
000003f0: 9bb4 bdbc 3a5f 80bd 5669 dfbc 505c 3e3e
0.025702473 -0.094395936 0.11303731 -0.12112418 -0.009993681 0.060973443 -0.04422696 0.07211176
-0.037519656 0.12560698 -0.07668056 -0.085251644 -0.019439219 -0.05903539 0.089826375 -0.0443221
-0.07191406 -0.109359786 -0.095477976 0.014666737 0.071646444 -0.034874097 -0.15225413 -0.08103933
-0.15879542 0.0822239 -0.058992356 0.05127156 -0.098198205 0.06318111 0.038427033 -0.09407195
0.08211014 0.17023437 0.16476795 0.08242504 -0.08351718 0.062077723 -0.031307973 -0.038776793
0.1451175 -0.042234067 0.04400092 0.065354556 -0.076086484 0.07958735 0.13823888 -0.029827315
-0.051326275 -0.04259875 -0.06937469 -0.077973284 -0.035670653 0.099128634 -0.044462338 0.08888376
-0.1490107 0.009590207 0.0096274335 -0.10564266 -0.0018704231 -0.016263716 0.064377874 0.05442895
-0.1013897 -0.08650737 0.09473573 -0.0985099 -0.03912274 0.04750777 -0.18533859 -0.25968143
0.16979185 -0.06729615 0.014384372 -0.15462999 -0.06124875 0.15176356 0.13068913 -0.05408976
-0.100706 -0.000116133335 -0.0069216276 0.097483434 -0.14821343 0.054749213 0.031254675 0.003590489
-0.05800753 -0.11510536 -0.07874374 -0.078369126 -0.08840463 0.11627388 -0.014885049 -0.04243877
0.11214367 0.074185655 -0.067935854 0.10425735 -0.055170253 -0.051598743 -0.1584329 -0.13372603
0.0067587537 0.05898389 0.09706916 0.06729738 0.05069287 -0.10610096 -0.06043342 0.08928123
0.036062103 0.073923886 -0.0052996646 0.030699164 0.1169577 0.18143769 0.25365767 0.006449245
-0.052818555 -0.0696883 0.013881997 0.023039663 0.02578139 -0.09042386 -0.15134038 -0.06391666
-0.012140687 0.05645266 0.14240344 0.11639186 0.14042723 0.021717543 0.122167714 -0.07942974
-0.023624092 0.080812335 -0.025791124 -0.114643894 0.06210551 -0.08727634 0.17871799 0.0437715
0.085848264 0.038022548 -0.005759711 0.031087141 0.020253552 0.05736094 0.045196433 0.095728494
-0.019033164 -0.16220103 0.08674724 0.015167825 -0.029347982 -4.6395504e-05 -0.11448719 -0.16324587
0.13801306 0.039865837 -0.08583631 0.03899029 -0.0803332 0.07109254 -0.059960812 -0.1704674
-0.12409918 0.0587244 0.11423911 0.11947409 0.17955276 -0.12798952 0.08055142 0.10914932
0.11732878 0.14570247 0.12848224 -0.0894026 -0.05465969 0.27176148 0.012855882 -0.009104915
0.035972033 -0.029037638 -0.04927117 0.09617816 0.121434554 -0.044620756 -0.16971678 -0.16487403
-0.13103008 0.091969036 -0.16474442 -0.019956125 0.07277265 0.10541708 -0.046812203 0.050453648
-0.08172881 -0.01862681 -0.08743093 -0.08938899 0.00801217 -0.07179516 0.07702821 -0.06495054
-0.15327448 -0.06758724 0.026436064 -0.1176102 -0.07256855 0.07265454 -0.037357256 0.014287704
0.09310059 -0.103775285 -0.07219081 0.068509795 -0.05264722 -0.09634054 -0.14514697 -0.034408223
0.08104428 -0.027029179 -0.11665163 -0.13828807 0.045514952 0.06248168 0.110329285 -0.15958712
-0.06942508 0.07267627 -0.13533014 -0.07929861 -0.079351865 0.01702291 0.0006909749 -0.025302792
-0.014230083 0.11812318 -0.0912396 -0.11772606 -0.0134323165 0.07544413 -0.09903903 -0.08610087
-0.02595292 -0.09284364 0.05814292 -0.08200931 -0.023157408 -0.06268163 -0.027271908 0.18589902

bias_ih_l0 f4 [256]
00000000: 5094 d73a 50d3 c13d 6601 d73c 2993 cf3d
00000010: 5890 86bd 8464 113e ea5d 393e 15ce c33c
00000020: 9167 113e 20f3 6cbc c813 093e 2edc ddba
00000030: cf3c 503d 3b42 b53b d9a7 b53d bb2a 39bc
00000040: bdce b93d 57a2 dc3d 7c2b 093e 2754 b73d
00000050: 4497 aa3d a47a 8b3d 399c f3bc 07e1 6f3d
00000060: 02a3 243d e7fa 97bd 9cf1 c5b9 d35e 443c
00000070: 151f 9a3d 6acb a03d 6edc 063e ca85 6dbc
00000080: 59a1 123d cfbd e03c e998 053e 1306 b8bd
00000090: 573c ac3b 39e6 8c3c 5f9d ddbc 2a43 c93d
000000a0: cd0d a2bd 51b0 a3bc cd63 b3bd f10e fb3d
000000b0: 7dd8 573d a710 d8bd 0bd4 11bc 6e65 1d3c
000000c0: 325d 363d aef1 cabd 8b33 683c 9e96 5dbd
000000d0: 9101 c7bd 7f71 ec3d 2209 183d dce0 003c
000000e0: 0a33 513c d53a 26ba a169 9cbd db06 bfbd
000000f0: b47e 473e 7471 8fbd 2a09 603d b233 f93d
00000100: 390c d13d 2150 0b3d 053a 283e b07b 0e3d
00000110: d653 003e 60b9 e33d 0825 1c3e 2d35 753d
00000120: c730 393e fc53 233d 082c 073d b1b2 febc
00000130: c535 5dbd 8471 853d b429 9fbd 5550 0fbd
00000140: 9680 293e 8c1b d9bd 1f00 653e 1792 8dbd
00000150: 2c57 193e cf91 213e 5cc8 d23d cf69 85bb
00000160: a9da c53d 91fe bf3d b04e 7e3c f01e b33d
00000170: f40d fc3d 17dd f63d 506a 103e d615 9a3d
00000180: 7750 f1bc 4dd0 453e b425 6cbd 78ea 9cbd
00000190: e108 90bd 27e4 483e 0b1c 4e3e 5094 6b3e
000001a0: 6bf9 493d fc2f 1b3e c553 fc3d 0b61 0f3e
000001b0: 127b fa3d e033 153e 0c0f 0f3e 6d1a b13d
000001c0: 4713 143d bc26 a7bd f392 dc3d 3e3c 123e
000001d0: c9b8 c5bd f203 3e3e 07e6 d73c 5094 093e
000001e0: 71c6 013e 2905 223e 0e85 813d f594 0a3e
000001f0: 8027 f93d cd3c ae3b 3718 31bc e668 4d3d
00000200: 5bf8 19bb fde0 ea3c 889f a8bd d28f 66bd
00000210: e133 923c 68cf 9a3d 61cc 43bd 146c 0d3d
00000220: 4b94 57bd b5bb 213d 18ed be3d 1829 023d
00000230: bce2 623d f45e 943d 8a15 033e 42a3 a7bc
00000240: b57b d03d df57 e8bd 0115 ffbb 6660 32bb
00000250: f4aa 04bd bef9 bd3d a3ba 903c 7e2c 013e
00000260: 673f 01be 1237 2dbd 1c2f e8bc 3e01 bc3d
00000270: 4b76 ae3d 0eef e03d 50ca eabd 41a7 f9bd
00000280: 314e 14bd d56b d93c 9eaa 78bb cd6a febd
00000290: 3bb3 fbbc f577 e03c cc38 303d 1aa2 203c
000002a0: eaf4 483d 8ed4 603d f224 0ebc 84e5 c53d
000002b0: ea3d 403d 6b69 6cbd b6e6 ac3d 08e9 d3bc
000002c0: 700a bb3d ce22 c83d fa12 90bd 3ec3 e7bd
000002d0: 7fe0 d6bd ac43 293d 6106 4e3c 3a1b 6a3d
000002e0: 6a2f e33a 3c82 ca3c cf40 c9bd fac3 3d3c
000002f0: c18b e83d d364 cd3d 4dcb 91bd 673b 67bd
00000300: 8bad f1bc 1fdd aebd 6f4d 2e3d 45bf 60bd
00000310: 46f3 d33d f33f 35bd fcbe febb 7e87 053e
00000320: 45cf ac3d 1c05 423c e274 423d 7bc7 d93d
00000330: f224 52bd 6b5e 63bc dacb 82bd 5683 9ebc
00000340: 62d7 ec3d 7840 093e c62c db3c 7773 1ebb
00000350: 3dc9 303d 820f c73d 42d8 ad3b a8a3 ae3d
00000360: 7a7c 473d 6f2a 8a3d c798 573e a1a4 89bd
00000370: 9587 a03d 1bc1 86bc b830 28ba dccb 813d
00000380: 4c16 fe3d 3f2a c23c 1f50 273e b35c 13bd
00000390: 6280 fbbb 789a 413e 0202 4d3d 960b be3d
000003a0: f182 8d3d 76f4 973d 3c9f 82bd d22b f23d
000003b0: 4351 343d f6a7 953d df29 d93c 3c01 0ebd
000003c0: 569a 65bd 5d14 bc3c a45a 3abd 9d73 4c3a
000003d0: 4ea3 033e d899 a03d 7ff7 bb3c bb98 ce3d
000003e0: bfdd b1bd dd58 033e 8838 9f3d f9be ff3c
000003f0: 66e2 833d 71df 033c d819 5f3e 39d1 58bd
0.0016447399 0.09464133 0.026245784 0.101354904 -0.065705 0.141985 0.18102232 0.023901979
0.14199664 -0.014462262 0.13386452 -0.001692658 0.05083924 0.005531577 0.08869905 -0.011301692
0.09072635 0.10773151 0.13395494 0.08951598 0.08329633 0.06810501 -0.029737579 0.058564212
0.04019452 -0.07420903 -0.0003775478 0.0119854985 0.0752546 0.07851298 0.13170025 -0.01449723
0.035798404 0.027434258 0.13046612 -0.089855336 0.0052562165 0.017199622 -0.02705258 0.09827264
-0.079127885 -0.019981535 -0.0875927 0.12258709 0.052696694 -0.10550051 -0.008900653 0.009606702
0.04452247 -0.09909378 0.014172445 -0.054098718 -0.09717096 0.11545085 0.037118085 0.007866111
0.012768516 -0.0006341164 -0.076373346 -0.093274795 0.19481927 -0.07004061 0.05469624 0.12168063
0.102074094 0.034011964 0.16428383 0.034785926 0.12531981 0.11119342 0.15248501 0.059865166
0.18085013 0.039875016 0.033000976 -0.031091066 -0.054006357 0.06515792 -0.07771626 -0.03498872
0.16552958 -0.10600957 0.22363327 -0.0691263 0.1497466 0.15778278 0.10292122 -0.0040714513
0.09660847 0.093747266 0.01552169 0.08746135 0.12307349 0.12053888 0.14103055 0.07523696
-0.029457314 0.19317742 -0.057653144 -0.07661909 -0.070329435 0.19618283 0.20127885 0.23005795
0.04931013 0.15155023 0.12320665 0.14001863 0.12230505 0.1457057 0.13970584 0.086476184
0.036151197 -0.08161685 0.10770216 0.14280793 -0.096543856 0.18556193 0.026354803 0.13435483
0.12673356 0.15822281 0.06324206 0.13533385 0.12165737 0.0053173066 -0.010808996 0.050148867
-0.0023493979 0.028671736 -0.08233553 -0.0562895 0.017847003 0.07559091 -0.047802333 0.0345269
-0.052631658 0.039485652 0.09322566 0.03177747 0.055392012 0.07244673 0.12801185 -0.02046359
0.10179845 -0.11344885 -0.0077844863 -0.0027218102 -0.032389596 0.0927615 0.01766712 0.12614629
-0.12621842 -0.042288847 -0.028342776 0.091799244 0.08518656 0.10983096 -0.11464369 -0.12190104
-0.03620738 0.026540676 -0.0037943493 -0.124227144 -0.030725112 0.02740095 0.043022916 0.009804273
0.049061693 0.054890208 -0.008675801 0.09662917 0.046934046 -0.057717722 0.08442442 -0.025867954
0.0913285 0.097722635 -0.070348695 -0.11316536 -0.10492038 0.041324303 0.012574763 0.05715487
0.0017332856 0.024720304 -0.098268144 0.011582369 0.11354781 0.10028996 -0.07118855 -0.056453135
-0.029501697 -0.08538269 0.042554315 -0.05486991 0.10349135 -0.04425044 -0.007774232 0.13039967
0.08437971 0.0118420385 0.04747475 0.10633751 -0.051304765 -0.0138774915 -0.06386538 -0.019349735
0.115645185 0.13403499 0.026754748 -0.002417771 0.043160666 0.09719755 0.005305321 0.08527309
0.048702694 0.06746375 0.21054374 -0.067208536 0.0783836 -0.016449502 -0.0006415951 0.06337711
0.124065965 0.023701785 0.16339158 -0.035977077 -0.0076752165 0.18906581 0.050050743 0.092795536
0.06909741 0.07419674 -0.06378028 0.11824764 0.04402281 0.07307427 0.026509224 -0.034669146
-0.05605539 0.022958929 -0.045496598 0.000779921 0.12855265 0.07841843 0.022945164 0.10087725
-0.08684873 0.12826867 0.07774454 0.031218993 0.064396665 0.008048878 0.21787202 -0.052933905

bias_hh_l0 f4 [256]
00000000: 8197 cd3d decf c2bc 471b 2f3e 311e b93d
00000010: b5f8 853c 39d4 72bd 6250 473e 9938 3b3e
00000020: a3a0 a2bd ec33 e53d 82c3 09bb 61dc 893d
00000030: 7f6b b63d a78e 08bc a4f2 9ebd 107b 7bbc
00000040: 9365 883d 3092 033c 137a 123e 6146 e13d
00000050: bda0 9bbd 7190 5abd 46c9 80bd 7cb1 f03d
00000060: f2d1 a73d ae82 d4bb 81db 813d 8b43 943d
00000070: 829a f7bb ec2c 2b3c 8382 0d3e ece5 d13d
00000080: e850 32bd 1614 b93d c585 a7bb 7d1d 06bc
00000090: d6ce 073c c208 6c3d c300 e4bc 5cb8 433d
000000a0: 7e54 04bd c02b fa3d a07d 38bd 7dc4 8f3d
000000b0: 9f50 8cbc 147d 2a3c 8c79 fe3c 261f 223d
000000c0: 3ba7 a7bc 4e3f 3f3d b19d b2bc fd9d 053e
000000d0: 5d53 d63d 2b42 f03d afa2 ca3d 4e2e 003e
000000e0: 701e 96bd cfc9 f0bc 8d2a 493d 7732 fd3c
000000f0: 2b6e 9fb9 b5a2 6d3d 7c1a e83d 48c3 723d
00000100: b825 193e 23ec a2bd 0752 9b3d 6920 0a3e
00000110: effd 2f3d 2be8 233e 007b a93d 6143 0b3e
00000120: c113 cb3d ca35 f239 fc46 d4bb 213b 333d
00000130: c4ce 2d3e d53e 8ebc f979 7b3d 742a f43d
00000140: 7e9d 963c 08c2 a5bd 703d 493e 48b6 17bd
00000150: 6f17 2cbd be5d dd3d 4217 85bd 98df 0c3e
00000160: 113d 703d d7ac ad3d 35ee 2a3e dd89 c13c
00000170: ad8b 2cbd b2eb 1cbd b5db 9b3d 3f75 ad3d
00000180: 1ec8 3bbd a5e8 033d 1c11 53bd d414 3ebd
00000190: 89d7 b73d aa5c f43d d61a 383e d5a5 2b3e
000001a0: 7924 9b3d 78fd 083e b6a1 a63d b9f0 093d
000001b0: ffbe 333c ee50 71bd 6d8c 043e 9490 5abd
000001c0: a80a a0bd daf3 073d dfc5 853d 0d2f 6a3d
000001d0: 1d2e f03d 2aac cd3d 807f 163d e1c9 b13c
000001e0: 3b59 02bd 5954 30bd 03e3 923d e4ea fabc
000001f0: 675d 5bbc e9cd 943b 9075 a93c 489e 233e
00000200: 565a babd 6138 a63d a710 683d aa0f 533d
00000210: be71 8abd 980b 883d 64ab 003e 42b8 ac3d
00000220: c965 a53d 0518 9f3d 6e86 8ebd 673f e43d
00000230: 10c7 693d bea2 75bd bcf8 223d f333 ff3b
00000240: b96b ecbd 5b73 9cbd da96 99bc c383 cdbd
00000250: e541 87bd 203f f3bd 3f71 ff3d 6977 083e
00000260: aaa7 b83d f37f d13d 9f0b 4bbd 7afe 85bd
00000270: 7058 5abc cb82 2b3c a6c1 d0bd 7969 e3bd
00000280: 7bac 5a3d bb9a 94bc 7d68 373d cca1 44bd
00000290: 0f78 dabd 16ce 7ebd 8c21 9ebd 231d 43bd
000002a0: 32c7 ddbd 7b4f e23b c3cf 8fbd 3010 cd3d
000002b0: 1a35 1f3d a843 debd 9c91 e53d 49b6 bcbd
000002c0: 4c3f 4f3d 57f4 213d 3b38 803d f607 b73d
000002d0: be18 0bbd 1f4e 5dbb 0ced e53a 8db2 9b3d
000002e0: 4748 453d c3c6 e83d 75da e03d cd58 39bb
000002f0: 01df c53d 6935 e1bd de2c 8fbd a766 783c
00000300: 37bf 0e3e df2e a3bd f2e9 823d 1251 043e
00000310: 7993 32bb f18b 563b 14d1 aebc d654 c6ba
00000320: ed6d a13d 8480 b2bd ca9c 123e de0c dc3d
00000330: 4c8e 623d c207 4fbd ca08 713d 79d9 65bd
00000340: 7a37 903c c1a2 d1bd 076f d83d 57d8 d23c
00000350: 6987 dfbc f882 e83d 4a3f a1bd eadf 883d
00000360: 6bf1 7abd 66d9 a9bc aeb0 7d3d 2973 12bd
00000370: 0658 1d3e 52da 713d 7196 17bc 5c38 e43d
00000380: 1fd0 fa3d 8b10 c7bc 2e20 673d 863e fe3a
00000390: 54c9 0a3d 1ce5 cb3d 0117 c73d 4974 e53c
000003a0: 8708 813c 3320 3bbc 0b4b 743d 8a2c 083e
000003b0: 753f 0abd 3bca cc3d 2fc5 1f3e 99c5 b3bc
000003c0: ce7c 0cbd 7ef2 e63c 8409 e73d 9ab7 8dbd
000003d0: f73e dbbd 9e70 d83d 1792 d23c f536 473e
000003e0: 3a35 65bc 6d8d ac3a 9ee1 ea3d edd6 5abb
000003f0: 9d95 e13d b618 373b 8690 4b3e fe4e 63bd
0.10038663 -0.02378076 0.17100249 0.09038962 0.016353944 -0.059284423 0.19464257 0.18283309
-0.07940795 0.11191544 -0.0021021073 0.06731487 0.08907222 -0.008334792 -0.07761124 -0.015349165
0.06659999 0.008030459 0.1430438 0.10999752 -0.07599018 -0.053360406 -0.0628839 0.117526025
0.08194341 -0.006485305 0.06340695 0.07239445 -0.0075562606 0.010447722 0.13819318 0.10248932
-0.04353419 0.09037034 -0.005112382 -0.0081857415 0.00828906 0.05762554 -0.027832394 0.04778324
-0.03230714 0.12215376 -0.04504168 0.07019899 -0.017128287 0.0104057975 0.031063817 0.039580487
-0.020465484 0.04669123 -0.021803709 0.13048549 0.10465119 0.117313705 0.09894311 0.12517664
-0.07330024 -0.029393105 0.049112845 0.030907853 -0.00030408925 0.058016498 0.113331765 0.059268266
0.14955795 -0.07955196 0.07584005 0.13488926 0.04296678 0.16006534 0.082754135 0.13599922
0.09915877 0.00046197913 -0.0064781886 0.04375756 0.16973406 -0.017363945 0.06139562 0.1192216
0.018385645 -0.08093649 0.19652343 -0.03703907 -0.042014536 0.108088955 -0.06498577 0.13757169
0.058651987 0.08480232 0.16692431 0.023625309 -0.042125393 -0.038310714 0.07610265 0.084696285
-0.045845143 0.03220429 -0.05152999 -0.046406582 0.08976657 0.11931737 0.17978987 0.16762479
0.07575316 0.1337794 0.08136313 0.033676837 0.01097083 -0.05891507 0.12944193 -0.053360537
-0.078145325 0.03319154 0.065318815 0.057173777 0.117275454 0.10042603 0.036742687 0.021702709
-0.031823378 -0.04304919 0.07172205 -0.030629583 -0.013388968 0.004541148 0.020685941 0.15978348
-0.090992615 0.08116222 0.056656506 0.05152861 -0.06759976 0.06642836 0.1256538 0.08433582
0.080760546 0.07768253 -0.06959234 0.111449055 0.057074606 -0.059969656 0.039787993 0.0077881753
-0.11543984 -0.0763919 -0.01874869 -0.10034897 -0.06604365 -0.118772745 0.12472772 0.13326801
0.090163544 0.102294825 -0.04957163 -0.06542678 -0.013326749 0.010468195 -0.101931855 -0.11104102
0.053387146 -0.018140187 0.044777382 -0.048005864 -0.106674306 -0.062208258 -0.07721242 -0.04763521
-0.10829009 0.0069064475 -0.07022049 0.10012853 0.038869 -0.10852748 0.112094134 -0.09214456
0.050597474 0.03953966 0.06260725 0.08937065 -0.033959143 -0.0033768488 0.0017541959 0.07602415
0.048164632 0.11366036 0.10979167 -0.002828169 0.09661675 -0.10996515 -0.069909796 0.015161193
0.1394013 -0.07967924 0.06392278 0.12921551 -0.0027248545 0.003273722 -0.02133993 -0.0015131484
0.07882295 -0.08715919 0.14317623 0.10744642 0.055311486 -0.050544508 0.058846273 -0.0561156
0.017604578 -0.10236121 0.10568052 0.025737925 -0.027286248 0.11353105 -0.078733996 0.06683333
-0.06126539 -0.020733546 0.061936073 -0.035754357 0.1536561 0.059046097 -0.009252177 0.11143562
0.12246727 -0.02429988 0.056427173 0.0019397296 0.033883408 0.099558085 0.097211845 0.02800955
0.015751136 -0.011421251 0.05964188 0.1329824 -0.033751924 0.0999951 0.15602563 -0.021944808
-0.03429871 0.028191801 0.11281112 -0.06919785 -0.10705369 0.10568355 0.025704427 0.19454558
-0.013989741 0.0013164707 0.11468814 -0.0033392266 0.110148646 0.0027938313 0.1987935 -0.055495255

weight_ih_l1 f4 [256, 64]
00000000: d1f6 eabd 9dff a1bd 61bb fa3d ec30 84bd
00000010: f699 493d 305e 7d3d 442b bd3c dbf6 cabd
00000020: 287a 2f3d c884 213e ba68 c4bd 38e6 ebbc
00000030: b4e2 c6bd 4fca 9d3d be02 d6bc 0229 01be
00000040: 80be 93bd b520 583d 3000 e2bd cb65 4fbd
00000050: 52e4 97bc 4b15 09be 9273 7a3d 9089 8fbd
00000060: a272 ff3d aed4 ce3d 7b97 35bd 6b97 17bd
00000070: 3479 1d3c 8f6e 05bd 4d58 f2bd da6e 9abc
00000080: e36c dbb8 2d1f 1a3e 2cb2 6e3d 5575 713d
00000090: ec81 b63d c961 12bd 08d4 d2bd ffac 88bc
000000a0: 3175 1d3e 40e6 15bd 495e 4abd b3a5 c53c
000000b0: 549f af3d df53 08bd 1bbf d73d b894 3fbd
000000c0: 32ec 993b a9da 9e3d ddff 95bc 7a20 8c3d
000000d0: c88e 8d3d a7b8 bfbd 4084 fb3c 1357 98bd
000000e0: 98ea 2dba 1b7b 203d a57e 15bd f987 dd3d
000000f0: c149 f23c 3c15 e8bd fa76 a4bc 02ea cf3c
00000100: ecd4 91bd a3d4 8fbd 6747 ea3d fbd7 f1bd
00000110: 3920 14be a254 b339 2a47 183d 7091 07be
00000120: fe9d a8bd f13b 05bd 397f 5f3d c651 a43d
00000130: 1755 03bd c099 8ebd 20cd 50bb 8599 35bd
00000140: 89b5 743d f5ee 3fbd 49e5 79bc 1c99 4e3d
00000150: fed9 a3bd 1636 08be 3f90 353d f367 9c3d
00000160: 8114 0abe 051b 6dbd b2a9 11bd 4931 2e3c
00000170: c136 25bc 9b67 cbbd 1b63 34bc a910 0fbe
00000180: 2c70 74bc 4a4e d93d 400a 7a3d cbde 29bd
00000190: 3082 9ebd d4f8 dabd 86a3 02bc a3d7 b8bc
000001a0: c340 823d fecf 70bd 7771 e5bd a380 c43d
000001b0: 16e4 8b3d f345 84bd a8a3 de3b 48d4 43bd
000001c0: e7c8 983c f908 c73d 75fa 863d f394 c53c
000001d0: 1e3e bb3c 2b3c 9abd aa94 bb3d 1567 5dbd
000001e0: 9a47 d33c e650 b6bd 5fdc ec3d 7545 613d
000001f0: ef20 a3bd c83b b33d c31a 243d 7a21 21be
00000200: 9d4e 823a 1b58 77bd 7ad8 bfbd 1070 0d3d
00000210: 1fd5 df3c ddd9 073e 1d02 ca3d e00f f13c
00000220: 930b f5bc 5f36 003e 1dd0 acbd d6fd 83bd
00000230: 3a69 8bbd 7b27 ac3d cc9b 1bbc c083 50bc
00000240: 41f5 cbbd 3ebf 203d 77a2 2b3d e160 d13c
00000250: 5c54 a03d 241d cabc f628 9a3d 65af 353b
00000260: faf7 0abe cc02 1dbe 54ad d63d 679f 54bb
00000270: e3d5 57bb 4618 963b a46d a9bd d26e c53d
00000280: 9c44 da3d 7801 51bc 8770 edbc 3b82 48bd
00000290: 6981 333b 94b0 99bb a2d6 a5bd 76ad 893d
000002a0: d4a5 a13d 71df cd3d 52f2 583b 2c5d b2bd
000002b0: 97f2 c63d ca13 64bd da2e a6bd 5513 5cbd
000002c0: 6571 cbbd 66d2 cabd 0607 e6bd a267 823c
000002d0: f719 5fbd bfa6 293e f788 e4bd 97e7 84bd
000002e0: 6b20 90bd e502 103c 27e5 f2bc 1723 e2bd
000002f0: 7f0c 05bb 08a4 dabb 56e6 44bd 5978 dabd
00000300: 7f7f 99bd 476b d8bd 7a43 ae3c 04c4 dabd
00000310: 1a5a 863c a494 debd 324b 0d3c 97d7 103e
00000320: 9dfa 993d 3e55 21bd 52e7 453d 4e89 8e3d
00000330: c4ac b73d c4aa 7cbd 8703 103e 2d5e 1abd
00000340: bc56 01bd ebbe 883d 21ca d8bd b0d1 033d
00000350: 521d 5c3c 1d0d aabd b684 1abd c825 d63d
00000360: deda c6bd 9142 71bd 0ffb c83d 491f 09bd
00000370: f23a 13be b435 96bd 136d 0fbd 3361 c63d
00000380: 0c3d da3d 0901 083e c733 413e 927f 5ebd
00000390: 4027 febc 5b66 b6bd 6556 f83d 1752 82ba
000003a0: 40aa c33d 300a 043e 31e7 323d 210b ba3d
000003b0: 6930 dc3d 8baf dfbd 7ddf 99bd bd19 d63d
000003c0: 3612 ef3d b31c 473c a4fa 31bc a2a9 62bd
000003d0: e62c 2f3d 4163 8fbd 9670 ddbd 7e31 163d
000003e0: 9ec0 e63d 29b6 b8bd c90d f23d 4ae8 debd
000003f0: 7876 a3bd 635f 333d 8396 25be 0764 dfbd
-0.11472858 -0.079100825 0.12242771 -0.064546436 0.049219094 0.061857402 0.02309192 -0.09910365
0.042841107 0.15773308 -0.095902875 -0.0287963 -0.09711209 0.07704603 -0.026124354 -0.126133
-0.07214069 0.052765567 -0.11035192 -0.050634187 -0.018541489 -0.13387029 0.061145373 -0.0700866
0.12473036 0.10099159 -0.044333916 -0.037009638 0.009611417 -0.03257614 -0.11833248 -0.018851686
-0.000104630155 0.15050955 0.058275387 0.058949787 0.089114994 -0.035737786 -0.10294348 -0.016684053
0.15376736 -0.036596537 -0.049406324 0.024126863 0.08575311 -0.03328311 0.10534497 -0.04677269
0.004697346 0.0775655 -0.018310482 0.06842132 0.06911999 -0.093613915 0.03070271 -0.07438483
-0.00066343835 0.039179903 -0.03649773 0.1081695 0.029576184 -0.11332175 -0.020076264 0.025380138
-0.0712069 -0.07022979 0.114394 -0.11808773 -0.14465417 0.00034204597 0.037177242 -0.13239074
-0.082332596 -0.032527868 0.05456469 0.080234095 -0.03206357 -0.06962919 -0.0031860545 -0.04433586
0.059743438 -0.046858747 -0.01525242 0.050438985 -0.08000563 -0.13301882 0.044327017 0.07637014
-0.13484384 -0.057887096 -0.035562225 0.010631868 -0.010083855 -0.099318705 -0.011009957 -0.13971199
-0.014919322 0.106106356 0.06104493 -0.041472238 -0.07739675 -0.106919914 -0.007973557 -0.022563761
0.063600086 -0.058792107 -0.11203282 0.09594848 0.06830613 -0.06458654 0.0067944117 -0.04780987
0.018650485 0.09718508 0.0659074 0.024118876 0.022856768 -0.075310074 0.09159215 -0.054053385
0.025790978 -0.08902149 0.1156547 0.05499788 -0.07965266 0.08751637 0.040064584 -0.15735427
0.0009941641 -0.06038676 -0.093674615 0.0345307 0.027323304 0.13266702 0.09863684 0.029426515
-0.029912746 0.12520741 -0.08438132 -0.064449 -0.0680718 0.08405968 -0.009497594 -0.012726724
-0.09958888 0.039244883 0.041902985 0.02555889 0.0782859 -0.024672098 0.07527344 0.0027722951
-0.13571158 -0.15333098 0.104822785 -0.0032443644 -0.0032933883 0.0045805303 -0.082728654 0.09640278
0.106576174 -0.012756698 -0.028984321 -0.048952322 0.0027390367 -0.004690239 -0.080975786 0.06722538
0.07892957 0.10052384 0.0033103419 -0.087091774 0.09714239 -0.055682935 -0.08114405 -0.053729374
-0.09933738 -0.099034116 -0.11231808 0.015918557 -0.05446812 0.16567515 -0.111589365 -0.06489485
-0.07037433 0.008789753 -0.029650284 -0.11041849 -0.0020301638 -0.006672386 -0.048071228 -0.10667486
-0.07495021 -0.105673365 0.02127241 -0.10681918 0.016400386 -0.10868195 0.008623885 0.14144741
0.07518504 -0.039387934 0.048316307 0.069597825 0.08968499 -0.061686292 0.14063846 -0.03768747
-0.031576857 0.0667704 -0.10585428 0.032182395 0.013434725 -0.083032824 -0.03772422 0.10456425
-0.09709714 -0.058901373 0.098135106 -0.0334771 -0.14377955 -0.07334462 -0.03501613 0.09686508
0.10656175 0.13281645 0.18867408 -0.05432088 -0.031024575 -0.089062415 0.121258534 -0.0009942678
0.09553957 0.12894511 0.043677513 0.09084154 0.10751421 -0.10922154 -0.0751333 0.10454128
0.11673395 0.0121528385 -0.01086298 -0.055337556 0.042767428 -0.07001353 -0.1081249 0.036668293
0.112672076 -0.09019119 0.118190356 -0.108841494 -0.079815805 0.04379214 -0.16170697 -0.109077506

weight_hh_l1 f4 [256, 64]
00000000: 5858 14be e06a b63c 9dd4 edbc 3047 b0bd
00000010: 0b9e dc3d 1dbf 0ebd 3569 fc3d a76f f2bc
00000020: ad01 e93d ca6a 8cbd 17a1 b43d 2762 12bd
00000030: de48 db3d bddc 2d3d 0be7 cebd 7218 97bd
00000040: d7f7 063d f442 bdbd 2b20 ba3d aa05 fb3d
00000050: 351e b43b ab51 c93b 9dde 19be d712 ea3d
00000060: 54a5 e13c d81e ad3d 3a8b 42bc 9833 a4bd
00000070: 3d49 57bd eb60 003e 9a6f dd3d 835e c63d
00000080: 4430 783d 490a 903d 4174 a93c bdb7 63bc
00000090: 6993 19be 53dd a3bc ab37 b0bd ca1a 72bd
000000a0: 7cba 87bd a5d5 543d 85b9 363d cbac a43d
000000b0: fefb 54bd f23a 833d 562f 5abd c8e4 a63d
000000c0: 384c b0bd 2968 ca3d 4010 bbbd 9989 96bd
000000d0: 3869 0c3c 37cb 37bc da11 4bbd a457 6cbc
000000e0: f31e e03d d000 55bc 6b4d f5bc e586 0b3d
000000f0: 13c9 923c f719 c93b 3643 fd3d 6ed9 963d
00000100: 0f63 ccbd 9940 753b 0701 f83d 0ef9 a53d
00000110: 3192 edbb e857 1dbd acc5 b53d d184 403d
00000120: eeba 993d 55a6 eabd d246 5ebd 4d78 8dbd
00000130: b81c 833b 80c2 a03b 547e 57bc eb37 2e3d
00000140: 0d25 bd3d 7650 983c 4f92 0ebe 26e5 8ebd
00000150: dfb6 96bd dd07 8f3c 2f89 fbbd 1687 a83d
00000160: 44d3 06be 4db7 2b3d 0fb4 c63d 6235 13be
00000170: 18ee 5ebd 2cac b53d 264c be3d 2975 42bd
00000180: 7d3a 3c3d fdba 6e3d 8bbd 273a 4fcf c0bd
00000190: d4f5 95bc e2e7 92bd 413e fbbc a285 94bd
000001a0: 351c efbd 35a7 8ebd 0a83 2cbd 2355 033e
000001b0: d4a5 9d3d ddc6 ccba a533 23bd ddf3 91bc
000001c0: fc0e bcbd 4b0f 0bbe 2f4c bd3d e927 903d
000001d0: 7e43 a33d 4f4a 8dbc 3190 e03c 0fa3 863d
000001e0: ddb7 a4bd 30e0 2f3d 5aff ecbd badf 0dbe
000001f0: 9273 e7bc c074 c7bc b8b8 19bd c50c 7d3d
00000200: 71e6 afbd 60d1 d93d 3ddd f8bd c98f 7dbc
00000210: abaa b4bd 33d3 373d 8989 17ba 796a 8abd
00000220: c369 9dbd 02c7 2b3d 062f ed3d 7ca9 393c
00000230: e7f9 603d 29a4 74bd 5c19 d4bd 3d10 e43c
00000240: ff07 23bd 42fe c2bd 8afd e03d 7066 58bb
00000250: 8779 f5bc 73ec fc3d 6be0 133d 7390 86bd
00000260: 84d3 053e a1df b23d 7a47 a43c 8f33 28bd
00000270: 8e2a 313d 9e9b a4bb efe9 d23d 51bb b53d
00000280: 00fd ccbd 05c2 9d3d a81e 03bd 8dad ac3d
00000290: 1c24 2b3c 1529 9e3d e3a4 023e a2ac eabd
000002a0: 8a5b f7bd d532 b7bc 1c56 283d 9bf1 453c
000002b0: 548e 9fbd 374e 0b3d 6814 49bd 9efb e83d
000002c0: 95e4 e4bd 2f27 a03d 5576 d5bd 9ed6 dfbd
000002d0: 6e08 353d 3e47 073e 9efc c73c 45e0 993d
000002e0: 9db3 413b a627 aebd 6ede dbbd 359d 74bd
000002f0: 1813 433d ddfe ca3d 4189 b2bb f896 a83d
00000300: 061e a03c 0209 a13c 5e5c babd 143a d53c
00000310: 9efe fcbd 36c3 ee3c b893 3f3c 8704 7bbd
00000320: 82e5 58bd 6a54 8c3c d4e1 96bd cd96 9cbd
00000330: ea25 d5bd d3f0 85bd 4367 cc3c 249a 9d3d
00000340: 41b2 81bd 94c3 14bd 3513 63bd 8c8a 193d
00000350: fac8 7abd 16f7 f93d 0a2b 5bbd 9f14 843d
00000360: e61b 403d ad12 0b3e 6c68 1a3e 5e3e 313d
00000370: b728 28bb c970 103e 995d 62bc 7eb7 0ebb
00000380: c953 20bc 6a21 cb3d a21d 1f3e cfb0 6f3d
00000390: 53fa f3bd fa41 3a3d 2d99 a1bc 564c ff3d
000003a0: a01d 083d 52c5 8d3d 436b 4b3d 7458 3fbd
000003b0: c179 193d 0d1a dfbd 4415 08be 5e13 f0bd
000003c0: fce0 f7bd 4bab 3c3d aa5a 873d 9e55 a33d
000003d0: 875c 8e3d 6992 e93d 2972 e03d 282b c63d
000003e0: b35d f7bc f75c b8bd a2d2 a73d ecd6 30bd
000003f0: 3275 103e 2d67 bbbd 8b14 a6bc b2dc 123e
-0.14486825 0.022267759 -0.029032046 -0.08607328 0.10772332 -0.03485023 0.12324754 -0.029594256
0.11377273 -0.06856306 0.08819788 -0.035738137 0.10707258 0.04244684 -0.10102662 -0.073777094
0.032951202 -0.09241286 0.09088167 0.1225694 0.005496765 0.006143769 -0.15026326 0.11429375
0.027544655 0.084531486 -0.0118740145 -0.08017653 -0.05256008 0.12536971 0.10812302 0.096859954
0.060592905 0.07033212 0.020685317 -0.013898787 -0.14997639 -0.020002997 -0.08604368 -0.05910758
-0.06627366 0.05196156 0.04461052 0.0804077 -0.05199813 0.06407727 -0.0532678 0.08149105
-0.086082876 0.09883148 -0.09133959 -0.073504634 0.008570008 -0.011217884 -0.04957757 -0.014425192
0.10943403 -0.013000682 -0.029944142 0.034064192 0.017918145 0.0061371285 0.12366335 0.0736569
-0.099798314 0.0037422536 0.12109571 0.08104144 -0.0072500934 -0.038413912 0.088755935 0.047001664
0.07506357 -0.114575066 -0.05426676 -0.06907711 0.0040012263 0.0049059987 -0.013152678 0.042533796
0.092355825 0.018593054 -0.13923 -0.069773 -0.07359099 0.017459804 -0.12282025 0.082288906
-0.13166529 0.041922856 0.09702312 -0.14375833 -0.054426283 0.0887073 0.09291868 -0.047475014
0.045954216 0.058283795 0.00063987885 -0.09414541 -0.018305697 -0.071731344 -0.030669333 -0.07252051
-0.11675302 -0.06965486 -0.042117156 0.12825446 0.07697645 -0.0015623231 -0.039844174 -0.017816478
-0.091825455 -0.13580053 0.092430465 0.07038862 0.079718575 -0.017247347 0.027412506 0.0657407
-0.08042882 0.04293841 -0.11572142 -0.13854876 -0.02825335 -0.024347663 -0.037529677 0.061779756
-0.08588875 0.10635638 -0.12151573 -0.015476176 -0.08821615 0.04487915 -0.0005780687 -0.06758589
-0.07686188 0.041937836 0.11581235 0.011331912 0.054925825 -0.059726868 -0.103563994 0.027839774
-0.039802548 -0.09521152 0.10985859 -0.0033020042 -0.029965175 0.123497866 0.036102694 -0.0657052
0.13068968 0.0873406 0.020053614 -0.041064795 0.043253474 -0.005023434 0.102985255 0.088736184
-0.100091934 0.07703022 -0.032011658 0.0843154 0.010445621 0.077226795 0.12758212 -0.11458708
-0.120780066 -0.022363106 0.041097745 0.012081529 -0.07790819 0.03401014 -0.049091727 0.11376117
-0.11176411 0.07819974 -0.10422961 -0.10929607 0.044197492 0.1321077 0.02441245 0.07513479
0.002955652 -0.08503656 -0.107357845 -0.059720237 0.04762563 0.099118926 -0.005448491 0.0823192
0.019545566 0.019657616 -0.09099649 0.02602867 -0.12353252 0.029145818 0.011692934 -0.061283614
-0.05295325 0.017130096 -0.07367292 -0.076459505 -0.10407622 -0.06540074 0.024951583 0.076954156
-0.06332827 -0.03631933 -0.05543824 0.037485644 -0.061226822 0.12205331 -0.053507842 0.06449246
0.046901606 0.13581343 0.15078896 0.04327237 -0.0025659034 0.14105524 -0.013816261 -0.002177685
-0.009785601 0.099184826 0.15538648 0.058518227 -0.1191298 0.045473076 -0.01972636 0.12465732
0.033231378 0.069224015 0.04966284 -0.046715215 0.03746963 -0.10893641 -0.13289362 -0.11722444
-0.12103459 0.046061795 0.0660909 0.079753146 0.06951242 0.11404879 0.10959274 0.096762
-0.030196046 -0.09002107 0.08194472 -0.043173715 0.14107206 -0.091505386 -0.020273468 0.14342001

bias_ih_l1 f4 [256]
00000000: cdcb 4fbd e86e 633d 3a1d aabd aa3d 373c
00000010: 0e40 8dbd 748b 943a 0405 c5bd 87ba e53c
00000020: 1dc4 2c3d e657 933d 2e60 4fbd 212e f93d
00000030: 463a ce3c 9766 9bbd 503e 393c 6f59 98bd
00000040: d97d d5bb ca05 ec3d 42de 9f3c 3354 fc3d
00000050: bef5 093c e8f6 f03d 80a9 953c 312d a13d
00000060: eddf 39ba 529f fd3d e204 9a3d b432 803d
00000070: 019f a4bd 288d 0a3e 2b9c c7bc 5e72 d7bc
00000080: d3ad afbc 7181 a23c 7830 a1bd 110c b63d
00000090: 5f41 c53c d77c 78bd 8bba 4ebd f0ff 853d
000000a0: 3eee 5d3d 3385 383d 650c 93bd 8bb9 243e
000000b0: e5f3 52bd f9ab 923d 94ae 793d 24f6 cd3d
000000c0: 4d5e e83c 5725 18bd 6df2 4d3d 631c bbbd
000000d0: 7158 99bb ff7f 5abc 6a31 ff3d fac5 973d
000000e0: 412f 883d 595c 203e a7b5 7bbd d5d6 693c
000000f0: b05a bdbc 545b ae3c 990c abbc 3f70 40bd
00000100: 3f5d 18bc c1f4 fc3d 573a c0bd 5922 a2bd
00000110: 1e75 d83c c236 a7bd 645d 98bd 3734 e3bb
00000120: bd9d 813d 2abb f83d 8268 a13d 5008 7cbd
00000130: 9372 02bd 20c3 053d a9d9 673d 6adb c43c
00000140: 22a3 73bd ed22 4dbd 01fa ff3d 2023 1c3e
00000150: 8b93 cb3d 0206 113e 8084 173e ba5b 2fbd
00000160: 9be2 383d 8621 a43d 3562 6e3d be9c f63d
00000170: e283 cabb fbd0 113d dc85 abbd 4548 963d
00000180: d9aa 9dbb 4107 a1bd c31b 90bc f756 cabd
00000190: 7d68 3b3d fd25 e03d 193e d33d 63f2 913d
000001a0: ddea ec3d d0bf 0d3e 0c53 9ebc 54b8 d73d
000001b0: 9f2d e03c 4d68 c83d d33d 843d 5a06 a7bd
000001c0: 9613 7d3d bd53 75bd 3781 c4bd 0b21 88bd
000001d0: 5de4 9cbc d98c 1d3e fda9 d43c 353a 073e
000001e0: 586f 193d dcf4 e43a b92f 933c ae15 93bd
000001f0: b421 c33c be27 e73d 4b9e a7bc 7913 b73d
00000200: c3c0 33bd fed4 adbc cf92 c4bd 6b86 82bc
00000210: ee07 08bd 2222 03be 02cc ddbb 4e22 f93c
00000220: 4090 06bd 6dce 993d d444 b23d 2259 c4bd
00000230: 343b 82bd c557 dbbd 2ddb c93d eeae f23d
00000240: 866c 853c 4d67 b53d c62e 14bd f609 66bc
00000250: bc57 da3c e1bb 5b3d b350 eabd eaa6 673d
00000260: a3fa 42bd 16bc 003e 3b14 f0bb 7673 163d
00000270: d03d 993d 40aa 67bb 7b2f 673d 60a7 ba3d
00000280: 6f04 c2bd 5828 bcbd b855 a8bc faf0 4abb
00000290: e394 2fbd f5ed d73d 611f d33d 136b 58bd
000002a0: b0de 6cbc a604 063e d400 8abc 4938 883d
000002b0: 640f acbd e45d 053e 30a8 e3bd 7562 533d
000002c0: 2ae0 02bc 99d8 ab3d 11d1 09bb 6b39 a1bc
000002d0: cb9c b4bc 9d9c 013e 9ab1 bdbd 98c0 c93d
000002e0: 6aba 923d b707 903d ea39 153d b67c 8c3d
000002f0: 2f68 8fbb bed1 ccbd c481 cfbc 5bb2 0d3d
00000300: 14cd 16bc a9e8 1c3d c055 a13c 53b5 903d
00000310: 8bae ad3d 6a68 0c3e 1732 abbd b274 fa3d
00000320: 60f6 c03d 5dad da3b 1d65 24bd 1a14 83bd
00000330: 6220 48bd 4cbb ad3d 2ab9 763d d881 bdbd
00000340: 9e84 d73d aed0 193e 0f82 003e 8f18 173e
00000350: a396 65bd 1086 023e cb3d 5fbd 6250 e4bc
00000360: c272 d13d 323d 82bc 72b2 f3bb f9fa 7e3d
00000370: 26b7 bbbc e6df 77bd 3765 b83c 03ea 7fbc
00000380: 3aac 5cbd 93a5 043e 5318 2f3c a8a9 9f3d
00000390: 510a 30bd e01c c73d 7a41 e0bd fab1 33bd
000003a0: 97c1 023e abc3 ecbc 8639 8f3d 4d20 213a
000003b0: ee3b 70bd 7f58 c9bd 1838 ad3d 1d8f ec3d
000003c0: d49b 63bd a50f 133e 882f e43d f28a ab3d
000003d0: 066a 0e3e cfd4 e83d d729 0d3d f7d9 67bd
000003e0: ecc2 b5bd 3988 023e 1d73 8f3d a6dd 683d
000003f0: d4da d03c 177a b0bc 2b32 a93d c9f7 8dbd
-0.05073147 0.05552569 -0.08306356 0.011184135 -0.06896983 0.0011333064 -0.09620097 0.028043045
0.042179216 0.071945 -0.050628833 0.121670015 0.025174271 -0.07587927 0.01130636 -0.07438933
-0.0065152464 0.11524542 0.01951516 0.12320747 0.008420406 0.11765844 0.0182693 0.07869948
-0.00070905575 0.123839036 0.075204626 0.06259671 -0.0803814 0.1353041 -0.024366459 -0.026299652
-0.02144519 0.019837113 -0.07870573 0.0888902 0.024079023 -0.06066593 -0.05047087 0.06542957
0.054182284 0.045048904 -0.071800984 0.16086404 -0.051502127 0.071617074 0.060957506 0.10056713
0.028365279 -0.037144985 0.050280023 -0.09136274 -0.0046797325 -0.013336181 0.12460597 0.07410808
0.06649638 0.15660228 -0.061452534 0.014272411 -0.023114532 0.021283783 -0.02088003 -0.046982046
-0.009299575 0.123513706 -0.093861274 -0.079167075 0.026423033 -0.08164741 -0.07439688 -0.0069337147
0.06328914 0.12145074 0.078812614 -0.061531365 -0.031847548 0.03265679 0.05660406 0.024030406
-0.059481747 -0.050082136 0.12498856 0.15247774 0.09940251 0.14162448 0.14796638 -0.042812087
0.045137983 0.080142066 0.058199126 0.12041615 -0.0061802724 0.03559969 -0.08375141 0.07338003
-0.0048116264 -0.07862712 -0.017591363 -0.098798685 0.045753945 0.10944746 0.103145786 0.0712631
0.11568234 0.13842702 -0.01932671 0.10533205 0.027365504 0.09785519 0.064571045 -0.08155508
0.061786257 -0.059894312 -0.09594958 -0.066469274 -0.01915186 0.1538576 0.025959963 0.13205798
0.0374597 0.0017467993 0.017967092 -0.071818694 0.023819782 0.11286877 -0.020461222 0.08939261
-0.043885004 -0.021219727 -0.09598314 -0.015933236 -0.033210687 -0.1280599 -0.0067687044 0.030411866
-0.03285241 0.07510076 0.08704534 -0.09587313 -0.06358948 -0.107101 0.098562576 0.118497714
0.0162871 0.08857594 -0.03617742 -0.014040461 0.026653163 0.053645972 -0.114411734 0.056555666
-0.047602307 0.12571749 -0.0073266304 0.036731206 0.07482493 -0.003534928 0.056441765 0.091139555
-0.09473502 -0.091873825 -0.020548686 -0.0030966387 -0.0428666 0.105434336 0.103087194 -0.05283649
-0.01445739 0.1308771 -0.016846098 0.066513605 -0.08401373 0.13024098 -0.111160636 0.051607568
-0.007988015 0.08390922 -0.0021029154 -0.0196807 -0.022047421 0.126574 -0.092623904 0.098511875
0.07164462 0.070327215 0.036432184 0.06859724 -0.0043764333 -0.10000943 -0.025330432 0.03459392
-0.009204168 0.03830782 0.01969421 0.07065835 0.08480557 0.13711706 -0.08359163 0.12229289
0.09421992 0.0066734985 -0.04013549 -0.064003184 -0.048859008 0.0848299 0.06023518 -0.09253281
0.105233416 0.15021011 0.12549613 0.14755462 -0.05605186 0.12746453 -0.05450229 -0.02787036
0.102269664 -0.01589832 -0.007437044 0.062251065 -0.02291448 -0.06051626 0.0225092 -0.015619758
-0.053875186 0.12953787 0.010686952 0.07796031 -0.04297859 0.09722304 -0.10949989 -0.043870904
0.12769161 -0.028901896 0.069933936 0.0006146476 -0.058650903 -0.098313324 0.08457965 0.11550734
-0.05556853 0.14361437 0.11141878 0.08376111 0.13907632 0.11368715 0.03446373 -0.05660435
-0.08875069 0.12747277 0.07004378 0.056852005 0.02549497 -0.021542592 0.08261522 -0.06932027
